model.pth (torch, 408467 bytes, 4 tensors)

layer1.weight f4 [128, 784]
00000000: 2ae3 c7bc 6ca8 0ebd f0a7 99bb f012 ddbb
00000010: 01f2 e6bc b8bb 64bc 2844 a93b 327b de3c
00000020: befd a1bc 06ec 6ebc a80e 133c f1e9 eabc
00000030: 3709 27bc ebde 3cbc e560 543c c637 c3bc
00000040: 7c9a c9bc 2088 df3a 38bf 19bc 30e6 cdbc
00000050: 9432 e0bb 9088 60bb 96a9 993c a537 c5bc
00000060: ca65 06bc 54e6 febb 0323 d6bc a6bc b23c
00000070: 065c a23c d803 7dbc 56da af3c 2ecf ea3c
00000080: 7b09 5abb 7557 e1bc d1e3 d63c 5472 563c
00000090: f059 bd3b e2ea 003d 3e69 343d d3a4 c83c
000000a0: d32f 073d c312 dd3c 23f0 55bd 7e8e 2c3b
000000b0: 23fa 353d b1d8 f83c b1a4 513d 0b2b 4e3d
000000c0: 8345 043d f3ed 693d 5c5e 0d3d f558 7f3c
000000d0: 30f2 ed3b d970 0e3d 8320 e1bc 90b0 213c
000000e0: 4090 86ba 6cae b53c 3222 233b 7fad 17bc
000000f0: c9c8 9ebc 8933 2dbc d15c 9c3c dca8 0c3e
00000100: 2af5 f23d 0ed2 573d 45ea 073e 89c4 1a3e
00000110: 57dd 623e 0676 e23d 03e2 f43d ce14 ff3d
00000120: 8ac0 b63d 1da0 2a3e 05b3 533e d507 5f3e
00000130: 020c c33d 3391 1f3e 13b6 183e 86ee dd3c
00000140: ba15 31bc 8c8c 65bc 729b e03c c864 ae3b
00000150: 406e af3a 3569 c0bc 68b2 133d 8124 c83c
00000160: dcab 7f3c 4c8b 9e3d 1ba1 da3d a745 6d3e
00000170: c784 ad3e 7ca6 703e 2606 053e 8563 0d3e
00000180: 62f2 1e3e 3d59 4c3e 12cb 4a3e 8a17 ea3d
00000190: 7d01 093d 6fc4 273d f361 023e 0569 103e
000001a0: bf18 083e 34b3 903d 0309 fb3d a6f9 de3d
000001b0: 08ac 133d 10a5 b33c 22df f9bc a879 c73c
000001c0: 32ef 8b3c bf7a 93bb 931d 2ebc 2740 fbbc
000001d0: ae80 523d 20a8 af3d c2bd 723d d8e6 9e3d
000001e0: 2beb 4c3e 6406 df3e 4d70 a03e d4d6 ca3d
000001f0: 7a04 eb3c 6bcf b4bc 8733 013e 4633 863c
00000200: 43fb 413c 7604 863d 0dc2 ae3d 35b2 313d
00000210: 96a0 033b dee0 a13c d18d 2cbd c105 103d
00000220: 46f5 8a3b 5ea1 94bc d70a a53a 8b62 3d3c
00000230: 9073 743b 7c68 003c 5705 00bd 4ae8 ef3c
00000240: eaae 613d ac95 bfbc 6c79 eabc 87c4 6fbd
00000250: 8a90 37bd f88c d53d 163c 173d 6a95 2cbe
00000260: da55 50be 73cf 4bbe 16c3 9abe 2ac6 6bbe
00000270: 9960 76be 82d3 87be cbc9 5abe 9d23 fbbd
00000280: c7b6 03be 72b5 32be 39bf 6ebe 3868 64be
00000290: cf19 ccbd 5ce9 f3bd 6f68 123c 6d67 1abb
000002a0: 831f fcbc c381 5ebc 72c7 233d 327c 0e3e
000002b0: 58e6 2e3e 89ff e8bc fa05 2f3c 0577 14be
000002c0: e84a 21be ea7a 06be 6c92 0dbd 5ccc 37be
000002d0: e97c 4dbe 279b 81be 16cd 84be 236c 83be
000002e0: 79a9 9abe 9bc2 76be ecec 90be 8970 8ebe
000002f0: 2100 95be 70fe a9be 6adc bebe fddc 88be
00000300: 6692 36be 736b 67be 6da6 01be edb6 f5bc
00000310: 73f4 8cbc c6ca 9ebc 215c f63b 42bd 0a3e
00000320: 78d7 b13d 22e2 b13d 7142 e6bc 47d0 8dbd
00000330: a162 bebd 4810 d8bc c08f f8bc d8ce 3dbe
00000340: 5adb 6bbd 204d 1ebe 59c9 fabd 4d98 43be
00000350: 0bee cdbe e42c a4be 7a9b a6be 6810 d7be
00000360: 8d86 a1be 3f51 bdbe ac7c d9be 3444 85be
00000370: fb41 cabd 5e8b 8ebe ea54 77bd 3058 c13c
00000380: 0a68 9a3c f31a 7c3d a33d af3c dbca a23d
00000390: 5c6f 543e 7f69 cb3d 8e17 1e3c 4c5c 3abc
000003a0: 1b0e 5b3d 066b c03c deee 4bbd 40e5 c7bc
000003b0: 4c85 fb3d 6b14 b4bc 9a8e 5c3c 20b2 d7bd
000003c0: 22b9 6cbe aee2 7abe 1f30 87be 0629 8ebe
000003d0: 5fcb 38be c7c0 6ebe f25f 56be 365e 28be
000003e0: 9bc5 123d 0ed5 d5bd 31df 713d 0197 403c
000003f0: 71c4 0c3d 2657 333d 2991 633d 76c2 a73d
-0.024400312 -0.03482859 -0.004689209 -0.0067466423 -0.028191568 -0.013960771 0.0051655956 0.027158353
-0.019774314 -0.01458264 0.008975662 -0.028676005 -0.010195068 -0.011527757 0.012962555 -0.023830306
-0.024609797 0.0017054118 -0.009383969 -0.025134176 -0.006841967 -0.0034261085 0.018757623 -0.024074385
-0.008202979 -0.007778922 -0.026139742 0.02181847 0.01981927 -0.015442811 0.021466415 0.028663244
-0.003326981 -0.027507523 0.026231678 0.013088781 0.0057785437 0.031474 0.04404568 0.024492657
0.033004593 0.026986485 -0.052230965 0.002633005 0.044428002 0.030376764 0.051182453 0.050334018
0.032292854 0.05711169 0.034513816 0.015585174 0.007261537 0.03477559 -0.027481323 0.009868756
-0.0010266379 0.022177897 0.0024892208 -0.009257673 -0.019382851 -0.010571369 0.019087227 0.1373629
0.118631676 0.052690558 0.1327296 0.15114035 0.22154747 0.110576674 0.11957171 0.1245514
0.08923443 0.16662641 0.2067376 0.21780331 0.09523775 0.15582733 0.14913206 0.027091276
-0.010808403 -0.01401056 0.027417872 0.0053220727 0.0013384297 -0.023487667 0.036058813 0.024431469
0.015604939 0.077414125 0.1067526 0.23171102 0.33890364 0.23501009 0.12990627 0.13807495
0.15522149 0.19955917 0.19804028 0.11430271 0.033448685 0.040958818 0.12732677 0.14102562
0.1329069 0.0706543 0.12257578 0.108874604 0.036052734 0.021929294 -0.030501906 0.024350002
0.01708183 -0.0045007165 -0.010627168 -0.030670239 0.05139225 0.08576989 0.059263 0.07758874
0.20011584 0.43559563 0.3133568 0.099042565 0.028688658 -0.02207156 0.12617312 0.016381871
0.011839691 0.065438196 0.08533106 0.043382842 0.002008473 0.019760545 -0.042127434 0.035161737
0.0042406647 -0.018143352 0.0012591732 0.011559139 0.0037300326 0.007837411 -0.031255092 0.029285569
0.05509845 -0.023386799 -0.028622352 -0.058537032 -0.044815578 0.10427278 0.036922537 -0.16853872
-0.2034525 -0.19903354 -0.30226964 -0.23024812 -0.24060287 -0.26528555 -0.2136604 -0.12262652
-0.12862693 -0.17452028 -0.23315133 -0.22305381 -0.0996586 -0.11909744 0.008936032 -0.0023560182
-0.030776745 -0.013580742 0.039985128 0.13914564 0.17080057 -0.028442161 0.010682577 -0.14498527
-0.1575123 -0.13132825 -0.034563467 -0.1794905 -0.2006718 -0.25313684 -0.25937718 -0.2566844
-0.30207422 -0.24097674 -0.28305757 -0.27820233 -0.2910166 -0.33201933 -0.37277538 -0.267311
-0.17829284 -0.22599582 -0.12661143 -0.029994452 -0.017206406 -0.0193838 0.007518307 0.13548759
0.086836755 0.086857095 -0.028107854 -0.069244914 -0.09296156 -0.026374951 -0.030341983 -0.18535936
-0.057582237 -0.15459108 -0.12245435 -0.19101067 -0.40220675 -0.320655 -0.32540494 -0.42004704
-0.31547967 -0.36976048 -0.4247793 -0.26028597 -0.09875866 -0.27840704 -0.060383715 0.023601621
0.018848438 0.06154914 0.021391695 0.07948848 0.20745605 0.09932231 0.009649171 -0.011374544
0.05348025 0.023488533 -0.04978835 -0.024401307 0.12281284 -0.021982392 0.013461733 -0.105320215
-0.23117498 -0.24500534 -0.264039 -0.27765673 -0.1804633 -0.23315726 -0.20935038 -0.16442189
0.035832983 -0.104410276 0.059050743 0.011754752 0.03436703 0.043784283 0.055558357 0.08191387

layer1.bias f4 [128]
00000000: 5615 ffbc 34b8 fbbd e684 11be 8e7f 2dbe
00000010: 2270 543e 3592 f6be bef2 743e 6563 b43d
00000020: 6c31 02bd 8f23 d53e 57a5 e23d 1d5a 513d
00000030: 7281 0f3e 68c1 d4bd 0a24 413e 4e65 3abe
00000040: f303 3f3e 033c 543e d51c b8bd dee5 ab3d
00000050: 76bf e0bd 8f9f b83d 1ed9 0b3e 6d13 1f3e
00000060: bb6d a53d 47af 13be dd16 283e 2ef0 0cbd
00000070: 7f97 973d f1b5 a4be 0ec5 e63d 6305 7b3e
00000080: 65db bcbe c0c4 23be 54b2 02be 1ee7 26be
00000090: e29e 203d c7d9 d1bd f73e 02bd eaf4 08be
000000a0: e7d5 683e fe84 b43e 7097 9d3a b66a 3f3d
000000b0: 760e d2bc a9e9 efbd 488b 9f3e 089e cb3e
000000c0: 5d86 7e3e c7f1 053e bf05 28be 81a2 f2bd
000000d0: fc91 7bbe e4c2 93be c2c0 c93d 5dab 8b3e
000000e0: b8d7 6e3e 726c 373e bc5c d33c acae 053d
000000f0: 2cee 85be e7e3 45be c815 d8bd 5bba 853e
00000100: 2aea 7d3d 4d8e 91be dc0a b6be b59e 20be
00000110: 9be8 c1bc d0e8 9a3d 12a0 25be ec96 15be
00000120: ec8e a1bc 69a0 18be 7232 7a3e 8c52 37be
00000130: fba6 27bc 1c76 083e 443c a1bb bee8 333e
00000140: 77dc 123e 1094 ac3d 6fd8 d0ba 6873 5c3e
00000150: f630 11bd 1a1d 35be 184a d9bd c920 debd
00000160: 847f 253c 24d8 693e 03ce 05be ca23 8b3e
00000170: 1f9d 16be 98a9 5f3e fda6 eabd dc62 3ebd
00000180: 1753 96be 68a3 493d 07f3 f3be c51e ed3d
00000190: b858 653d 477e e13d 2a36 9fbe 74a6 ab3e
000001a0: ab4e 443e 3262 b43d 53c4 093e 575c 343e
000001b0: 12fe ba3d ce6f 0bbe e2a4 b23a cbf3 863d
000001c0: 6994 f43d 6e87 d33d 5705 313e 382e 1d3e
000001d0: 88f9 a2bd 74e9 31be a164 a9be 9cdc d6bd
000001e0: ee84 9dbe 8edd 05bb b51b 833d 679d 03be
000001f0: bcd3 a53e f50f 123e 1583 c63e e940 a73d
-0.031138103 -0.12290993 -0.14210853 -0.1694319 0.207459 -0.48158422 0.23920724 0.088080205
-0.031785414 0.41628692 0.11066692 0.05111133 0.14014223 -0.10388452 0.18861404 -0.18202707
0.1865385 0.20726018 -0.08989874 0.08393453 -0.10974018 0.090148084 0.13657042 0.15534754
0.0807757 -0.14422332 0.16414972 -0.03440874 0.074019425 -0.3217006 0.11268054 0.24513774
-0.36886135 -0.15993023 -0.1276334 -0.16299102 0.039214022 -0.10246616 -0.03179833 -0.13374677
0.22737847 0.35257715 0.0012023281 0.046732627 -0.025641661 -0.11714489 0.3116095 0.39769006
0.24855943 0.13080512 -0.16408442 -0.118474014 -0.24567407 -0.28859627 0.09851219 0.27279177
0.23324478 0.17912462 0.025801055 0.032637283 -0.26158273 -0.19325219 -0.105510294 0.2611874
0.061990894 -0.2842888 -0.3555516 -0.15685542 -0.023670485 0.07563937 -0.16174343 -0.14608353
-0.01972147 -0.14904942 0.24433306 -0.17902583 -0.010232682 0.13326305 -0.0049205143 0.17569253
0.14341913 0.08426678 -0.0015933643 0.21528399 -0.035447083 -0.17686883 -0.106098354 -0.10846097
0.010101203 0.22836357 -0.13066868 0.27175742 -0.14708374 0.21842039 -0.11457632 -0.046481
-0.29360268 0.049228102 -0.47646353 0.115781344 0.055992812 0.110104136 -0.3109601 0.3352543
0.19170634 0.08807792 0.13453798 0.1761335 0.09130491 -0.13616869 0.0013629461 0.065894686
0.119423695 0.103285655 0.17287193 0.15349662 -0.079577506 -0.17374212 -0.33084586 -0.10491297
-0.3076548 -0.0020426246 0.06401769 -0.12853013 0.32388103 0.142639 0.38771883 0.081666775

layer2.weight f4 [10, 128]
00000000: fddf 9dbe 5763 dc3e 9f2e 333e bb31 71be
00000010: 412c 7bbe e4dd 013e dedb e3be 5795 d3bd
00000020: 2582 b63e a8f1 1e3d d253 c4be ea19 8b3e
00000030: d0b4 cabd 820a 58be 8c90 043d 5d1c c13e
00000040: 80d5 14be 471a afbe 0037 d63e d361 26be
00000050: dd06 a63d 134e 3d3e b82b b1be faba 93be
00000060: b3fa bf3e d4a0 8c3e a965 bcbe 6298 e43e
00000070: 3d4b 23be 57a9 ab3e 8a06 bd3e 0578 9dbe
00000080: 586e 183f e0aa a1be 89b1 da3d 8560 d23e
00000090: 56ac eb3b b866 fcbd b2e1 d1bc 87de 863d
000000a0: f2c9 04bf 21f9 4cbf d1ec 0bbf 6b4d 05bf
000000b0: 6bbf 17bf 152d 51be 6140 0dbe 1405 51be
000000c0: af17 82bd 3044 c73e f421 8b3e 93d8 023e
000000d0: 8ebf 86be 197b 4bbd d02a 0d3e 1d13 d6be
000000e0: 8a56 06be 74be 02be 7d36 93bd 225a e9be
000000f0: 9595 9fbd 10b7 8e3e 7710 48be c4d2 9cbe
00000100: 39c5 d9bd 3110 9f3e 671e 7c3e f5de 25be
00000110: 5ca2 183f a12a 723d 001d 7a3e 1837 b63e
00000120: 1171 91be 4199 a13e 2154 0d3e e241 073f
00000130: cb2d 8a3d 942d 67be 4061 9e3e 8240 3dbf
00000140: 6cc3 dabe 4e4c 7b3e ea1c 8f3d db2b abbe
00000150: 642b 8f3d 6beb 983e b9a8 033f d5e9 cabe
00000160: 78f6 39be a2cc 2b3f 68e7 c3bd 22ce bf3e
00000170: 5158 5d3e 94e8 903b 59fc 173e 6ea9 4b3e
00000180: 0c33 c7be 3ea5 3e3e 97e3 103f ac13 dabe
00000190: 3a23 aebe 5cd1 c63e de73 e5bd 5d07 1abf
000001a0: 0089 96be 5721 74be e1bb c6be 24c3 c7bd
000001b0: 4948 0bbe f09f a23e 9695 5fbe 8c3a aabe
000001c0: 21ba 2fbe 850e ab3e 3472 4bbe 6cb9 acbe
000001d0: feed 2bbf d434 b33d a2af 24bc 5bf2 503d
000001e0: 0124 d43c 27f7 813e d426 b63d c7a8 99be
000001f0: cac2 b5bc e799 84be 46f2 143d d8f5 4ebe
00000200: aea0 13bd 5af5 c73d 990a 8bbb cf01 f9bd
00000210: b1ae bdbe 3960 a8bc 8410 c43e c2a8 aa3e
00000220: b77e 9cbe 065f a9be e901 c0be fc59 76bd
00000230: 6c91 af3d 948d b83d eff5 d2bd 21b8 1cbc
00000240: d5ac 2cbe 2c91 c3be f285 973d 96ed 8cbd
00000250: 8561 4b3e 2b3a 053f 6229 f3bd cae0 87be
00000260: bec3 16bf eaa7 463e 86fb 86be 5a6e 13bf
00000270: e9d9 b6be 2eb6 b2bd 43bf 63be 3b85 433e
00000280: 936f 433e ad7d 513d c731 85be f595 8bbe
00000290: eabe bb3e e4c3 3ebe 6abf 1b3f 4b5e 873e
000002a0: e803 38be 29b8 03be 3ccd 3d3d 51d8 13be
000002b0: 2fb2 133e 513b 39be f265 8dbe d6be 2e3e
000002c0: 30e7 c9be 60af 61be 1d32 263e 30fd d5bd
000002d0: cc10 d3be dbe2 09bf 0b16 20bf 576a 5cbd
000002e0: cd92 623f bd58 bdbc 4773 aabe 6a2f 163e
000002f0: ce80 46be 2c2f a7be cf66 63bd 8d10 98bd
00000300: 7f80 93bd c08e a73e cf5b 5b3e 0fe5 b23d
00000310: a150 68bd f788 853e a906 c2be 1d80 6f3e
00000320: 494f c73e d358 93bd c691 b2bd 1923 87be
00000330: 1bec e53e 7ec0 08be 491c ea3d 91d5 9f3e
00000340: 099b 9abe 98cc c03e 0d77 98bd d140 b83e
00000350: 7669 733e e67f 8cbd 5b61 bebe 065e e53e
00000360: e89f 13bd 98fa e23e 668d e5bd f768 0a3f
00000370: e7d3 fcbe 16d6 03bf 7974 9d3e eb90 8d3e
00000380: 5da9 853e 139a 6dbe b1bb c9be 56d3 eebc
00000390: afb7 5c3c 469f 49be c993 30be caf5 b0bd
000003a0: 7a1e 3abe 54b1 b0be 79fc 493d c526 cd3e
000003b0: 38ee 1d3d 588c 7f3e 52c9 ed3d 7924 5ebe
000003c0: f3ce a3be 15c5 68be 87d9 abbe 5d99 c93d
000003d0: dab6 06bd 8c95 a83e fcad 38bf c769 c0be
000003e0: 05c5 e3bd b00c f63e 22f2 02bd 4c84 8e3d
000003f0: 93c3 35bf d640 fbbd 2829 a8be 43d0 ee3e
-0.30834952 0.4304454 0.17498253 -0.23554127 -0.245286 0.12682301 -0.44503683 -0.10331219
0.35646167 0.03880468 -0.383452 0.27168208 -0.098977685 -0.21097758 0.032364413 0.37716952
-0.14534569 -0.34199736 0.41838837 -0.16248254 0.08106778 0.18486814 -0.34603667 -0.2885359
0.37495956 0.27466452 -0.3679631 0.4464751 -0.1594667 0.33527634 0.3691905 -0.3075563
0.5954337 -0.3157568 0.106783934 0.41089264 0.007192175 -0.123242795 -0.025620315 0.065854125
-0.51870644 -0.8006764 -0.5465823 -0.52071255 -0.59276456 -0.20427354 -0.1379409 -0.20412093
-0.063521735 0.3891921 0.27174342 0.12777929 -0.2631802 -0.049677942 0.13785863 -0.41811457
-0.1311895 -0.12767965 -0.07188127 -0.45576578 -0.077922024 0.2787404 -0.19537531 -0.3062955
-0.1063332 0.3106704 0.24620973 -0.16198333 0.5962274 0.059122685 0.24425125 0.35588908
-0.28406575 0.31562236 0.13801624 0.52834904 0.067470156 -0.2257598 0.3093357 -0.73926556
-0.4272722 0.24540827 0.06987937 -0.33431897 0.06990698 0.2986711 0.51429325 -0.39631525
-0.18160427 0.6710912 -0.095656216 0.37461954 0.21615721 0.0044222567 0.14842357 0.19888851
-0.38906133 0.18617722 0.56597275 -0.42593133 -0.3401125 0.38831604 -0.112037405 -0.60167485
-0.29401398 -0.23840843 -0.38815215 -0.09754017 -0.13601793 0.31762648 -0.21834406 -0.33247793
-0.17160846 0.33409515 -0.19867784 -0.33735216 -0.6716002 0.087503105 -0.01005164 0.05101238
0.025896074 0.25383875 0.088941246 -0.3001158 -0.02218761 -0.25898668 0.036363862 -0.2021097
-0.036041908 0.09763594 -0.0042432067 -0.12158548 -0.3704734 -0.020553695 0.3829385 0.33331877
-0.30565426 -0.3308031 -0.37501457 -0.06014441 0.08572659 0.09011379 -0.10300814 -0.009565384
-0.16862805 -0.38196695 0.07398595 -0.068812534 0.1986142 0.5204188 -0.118731275 -0.26538688
-0.5889243 0.19399992 -0.26363772 -0.5759026 -0.35713127 -0.08726154 -0.2224093 0.19093792
0.19085531 0.051145244 -0.2601454 -0.27262846 0.36669093 -0.18629414 0.6083895 0.26439127
-0.1797024 -0.1286322 0.046338305 -0.14437987 0.1442344 -0.18089034 -0.2761684 0.17064986
-0.39434195 -0.22039557 0.16230054 -0.10448682 -0.41223752 -0.5386178 -0.62533635 -0.05381235
0.8850525 -0.023113603 -0.33291075 0.14666525 -0.19385073 -0.32653177 -0.055517968 -0.07425032
-0.07202243 0.32726097 0.21421741 0.08735096 -0.05671752 0.26081058 -0.37895706 0.23388715
0.38927677 -0.07194676 -0.0871921 -0.26393965 0.44906697 -0.1335468 0.11431176 0.31217626
-0.30196407 0.37656093 -0.07444582 0.3598695 0.23770699 -0.06860332 -0.3718365 0.44798297
-0.03604117 0.44331813 -0.1120861 0.54066414 -0.4938042 -0.51498544 0.30752924 0.27649626
0.26105776 -0.23203306 -0.3940101 -0.029153507 0.013471528 -0.19689664 -0.17243876 -0.086406305
-0.18175688 -0.3451029 0.049313042 0.4006864 0.03855726 0.2495588 0.116106644 -0.216936
-0.31993827 -0.22731431 -0.33564398 0.09843705 -0.032889225 0.32926595 -0.7214048 -0.37580702
-0.11121563 0.48056555 -0.031969197 0.069588274 -0.7100155 -0.12268226 -0.328439 0.46643266

layer2.bias f4 [10]
00000000: 07e2 81be 315d 93bd f393 5dbe 18da 94be
00000010: 127c 08be a088 d1bd 82b5 9dbe 8746 10be
00000020: 875e b7be ceb8 30be
-0.25367758 -0.07195509 -0.2163847 -0.29072642 -0.13328579 -0.10231137 -0.30802542 -0.14089404
-0.35814306 -0.17257997
