model.pth (torch, 408467 bytes, 4 tensors)

layer1.weight f4 [128, 784]
000000 70 06 4a bb e6 48 ee 3c 70 44 ae 3b 12 4c 63 bc
       -0.003082659 0.029087495 0.005318217 -0.013873117
000010 da 2f e4 3c 1c 75 2e bc b0 5f 49 bb 08 a3 0f 3c
       0.027854849 -0.010648038 -0.00307272 0.008766897
000020 40 c9 5b bc 98 27 cc bc 80 48 47 ba d8 dd 32 3c
       -0.013414681 -0.024921224 -0.0007602051 0.0109171495
000030 c7 87 54 bc 89 cd e0 3c e8 b4 8a 3c 90 2b 9b bc
       -0.012971825 0.027441757 0.016931966 -0.01894167
000040 f0 f6 fe 3b 12 36 f2 3c f8 8a f0 3b 18 84 0d bc
       0.007780902 0.029566798 0.007340785 -0.008637451
000050 b0 29 74 3b 1c fc eb bc 00 89 bb bc 15 6f fb bc
       0.0037256293 -0.028806739 -0.022892475 -0.030692616
000060 2e 59 c7 bc 63 87 02 3d d8 88 04 3c d5 4b b3 bc
       -0.024334516 0.031867396 0.008089267 -0.021886745
000070 38 d7 1b 3c 9a e4 ea bc 30 e3 57 3c 23 8c 90 bc
       0.009511761 -0.028673459 0.013176724 -0.017644947
000080 da da 83 3c c9 c2 8c bc 07 da 01 bd 3b 52 4d 3c
       0.016095567 -0.017182725 -0.031702068 0.012531812
000090 b5 cd 95 3c 8f 8b ae 3c 66 4b e9 3c 42 3d 94 3c
       0.018286565 0.021306781 0.028478336 0.018095616
0000a0 87 49 0e bc 87 58 8f 3a f1 1a 88 3a 51 da 0d 3d
       -0.0086845225 0.0010936417 0.0010384006 0.03463203
0000b0 88 b5 ca 3c f7 79 98 3c ca 62 13 3c f4 e8 98 3b
       0.024744764 0.018612845 0.008995721 0.004666442
0000c0 40 46 ff 3b 80 2a 9e bb be e6 f8 bc a9 ac e4 bc
       0.007790357 -0.0048268437 -0.030383464 -0.027914362
0000d0 26 52 61 bc 64 18 f1 bb 00 56 4a b9 0c a8 a6 bc
       -0.013752496 -0.007357644 -0.00019296259 -0.020343803
0000e0 34 7b 1e 3c 72 a1 ff 3c 67 a3 93 3a 3c 45 bc 3c
       0.009672929 0.031204913 0.0011263908 0.022982232
0000f0 24 44 06 bd 34 bd 12 bd 5c a6 11 bd 23 bc 80 bb
       -0.032779828 -0.03582497 -0.035559043 -0.0039286776
000100 97 10 41 bd 23 d6 5d bc ed 34 78 bd 3d cb 0d be
       -0.047134962 -0.013539824 -0.06059735 -0.1384706
000110 7e 5b bb bd 92 fc dd bd 3f e5 cd bc 12 77 7a be
       -0.0914831 -0.108391896 -0.025133727 -0.24459484
000120 5e a6 19 be 16 dd d4 3d 7d 3b 8a 3e 90 77 a1 3d
       -0.1500487 0.10393731 0.2699851 0.07884133
000130 66 bc c2 bd 6e af 1f be 1e b3 1d be 6d e0 8a ba
       -0.095085904 -0.15594265 -0.15400359 -0.0010595449
000140 97 cc be bc 66 83 37 3c bc fb 65 bc c2 cd 86 3c
       -0.023290915 0.011200761 -0.014037069 0.016455535
000150 26 36 e1 3c 4e d9 57 bc fb 2f f5 3c 9e 89 ba bb
       0.02749164 -0.013174368 0.029930105 -0.005692675
000160 2c 10 b8 bc a5 aa ae 3d 9e cb 3f bd fc e5 ef bd
       -0.022468649 0.085286416 -0.046825044 -0.11713788
000170 8e 80 1f be 59 e6 e3 3c 19 c6 7c 3b c7 a3 58 bc
       -0.15576383 0.0278198 0.0038570224 -0.013222641
000180 c8 8e 77 bd 8e 7b 18 be 5c 16 dc bb 25 85 95 3e
       -0.0604389 -0.14890882 -0.0067165326 0.29203144
000190 1f a0 34 3e 80 c1 06 3e f2 a8 13 3e 80 da 70 3d
       0.17639206 0.13159752 0.14419916 0.058802128
0001a0 16 39 04 be 9d dd 59 be f4 b6 91 3d 7d 16 ab bd
       -0.12912402 -0.21275945 0.07114974 -0.08353899
0001b0 9e d8 85 bc 9c dc 8d 3c 19 e2 03 bd 30 43 15 3c
       -0.016338643 0.017317109 -0.032198045 0.009110257
0001c0 ae 2f eb 3c c5 af b2 3b a7 0d 0d 3d 3e 6d a7 bc
       0.028709259 0.0054530823 0.034436848 -0.020437833
0001d0 25 3c f9 ba 21 97 ff bc 17 2e 94 be 02 c2 3b be
       -0.0019015117 -0.031199994 -0.28941414 -0.18335727
0001e0 91 19 a4 bd 12 09 6c 3e 4d ba b1 3e 46 24 9d 3e
       -0.08012689 0.23050335 0.3471245 0.30691737
0001f0 af 2e 35 3d a6 cd 2a be fe 60 22 3c 99 97 f5 3d
       0.044233974 -0.16680011 0.00991082 0.119918056
000200 55 9c 1a 3e 61 79 19 3d ea 85 af 3d 89 e3 19 be
       0.15098698 0.03746927 0.08570464 -0.15028204
000210 5a 13 5e be 50 e8 22 bd 67 41 23 3e 02 1a fb 3d
       -0.2168707 -0.03977233 0.15942918 0.1226082
000220 ed d2 38 3e e4 3c 91 bb ee 9c 0b ba de 64 b6 bb
       0.18049212 -0.0044323076 -0.00053258135 -0.0055662235
000230 88 3e d4 3c 5a 74 f8 bc 57 02 06 bd e0 63 93 3c
       0.025908723 -0.030328918 -0.032717075 0.01799196
000240 e5 41 b0 ba 7e 2a 19 be d1 e7 70 be 49 5f 83 be
       -0.0013447372 -0.14957616 -0.23525931 -0.25658634
000250 f8 05 84 be 29 ea e4 bd 09 5e c9 3d 89 00 6e 3d
       -0.25785804 -0.11177475 0.09832389 0.05810598
000260 bd 0a ef bc a8 00 92 bd a9 c4 d2 3b 9c 4e 25 3e
       -0.029179925 -0.071290314 0.006432135 0.16143268
000270 27 6c 08 3e b8 6c 4b 3d 7d b7 09 3e 5e 78 08 3e
       0.13322507 0.04966423 0.13448901 0.13327166
000280 e8 86 b6 3d aa 4d 5f 3e 0f d5 ce 3e 4c 38 89 3e
       0.0891245 0.2180697 0.40396926 0.26800764
000290 36 02 57 3e 01 00 05 3c 18 12 3b 3d 45 ff 8a 3c
       0.20996937 0.008117677 0.045671552 0.016967425
0002a0 08 31 a0 3b ee a7 bf 3c 0f d2 76 bc 8b 34 02 be
       0.0048886575 0.023395505 -0.01506473 -0.12715356
0002b0 65 c8 20 be ce 78 46 be eb bf 07 be 67 58 1c bd
       -0.15701444 -0.19382021 -0.13256805 -0.038170245
0002c0 67 eb 51 3e 3d 00 bf 3c 7e 52 35 bd 05 8c 98 bb
       0.20499955 0.023315543 -0.044268124 -0.0046553635
0002d0 f9 d5 b2 bc 41 c8 8a 3d 1f a9 5c 3e 6a bd 8c 3e
       -0.021830546 0.06776477 0.2154889 0.2748826
0002e0 d3 30 1f 3e 02 f5 53 bd 1f cc d3 bd b8 48 a2 bd
       0.15545969 -0.05174733 -0.103416674 -0.07924026
0002f0 68 bd 54 3d fc 2f c3 3d 93 67 46 3e 97 88 41 3e
       0.051938444 0.09530637 0.19375448 0.18899761
000300 20 aa e5 3e 90 a0 82 3e e0 8b 25 3d fe a4 b5 3c
       0.44856358 0.25513124 0.0404166 0.022173401
000310 0c 42 1f ba 18 b9 28 3b 07 f8 c5 bb 82 a4 76 be
       -0.00060752104 0.002574509 -0.00604153 -0.24086192
000320 5a 48 03 bd 1e 24 1d bd cf e4 44 be 9b a0 fd bd
       -0.03205142 -0.038364522 -0.19227909 -0.12384149
000330 c6 f6 97 3e be 23 1a 3e 71 86 60 3c aa 81 af bd
       0.2968046 0.15052697 0.013703928 -0.08569653
000340 f9 8d 3c bc f6 a3 46 3c 40 21 d2 3d cf 63 39 3e
       -0.011508458 0.012124052 0.10260248 0.1810448
000350 b2 24 0b bb 9e 92 1e be 6b 7d e0 bd cd e9 cf bd
       -0.002123159 -0.15485618 -0.109614216 -0.10152016
000360 55 84 ae bd 51 b2 cb bd 33 66 b2 3c 68 75 1b 3e
       -0.08521334 -0.099461205 0.021777248 0.15181506
000370 39 29 ae 3e c6 00 66 3e f8 ce 84 3d 81 21 f0 3c
       0.34015825 0.22461233 0.06484789 0.02931285
000380 a8 be e8 3c 09 09 3c bd bc 17 9a bd 03 13 42 bd
       0.028411224 -0.045907054 -0.07524058 -0.047381412
000390 84 d3 b2 bd 46 57 99 bd 8d 56 94 bd c7 d6 ca bd
       -0.0873175 -0.07487349 -0.07243071 -0.09904247
0003a0 68 14 12 3e 68 a4 1b bc 0a 30 06 be 69 11 a0 bc
       0.14265597 -0.009499647 -0.13104263 -0.019539552
0003b0 a3 4c c1 3d b0 4a d4 3d 08 7e d5 3d 75 90 9e bb
       0.094384454 0.10365808 0.10424429 -0.004838998
0003c0 57 75 0a bc 42 42 3f bd 3b df 94 bd 3f 6a c1 bd
       -0.008450828 -0.046694048 -0.0726914 -0.09444093
0003d0 17 1c 9d bd 6f 37 63 3d b9 df a4 3e 95 83 82 3e
       -0.07671373 0.055472787 0.32201937 0.25491014
0003e0 33 02 a5 3e 72 9d b6 3e 7d a4 9b 3d 8e bd e9 3b
       0.3222824 0.35666996 0.07599733 0.0071331924
0003f0 c2 f8 a0 bb d5 9b 18 be f7 1a 8b 3d 3b 3f 06 3d
       -0.0049124667 -0.14903195 0.067922525 0.032775145

layer1.bias f4 [128]
000000 3a 6a 49 bd f4 2d 90 3d 20 80 11 3e 43 02 d6 3d
       -0.04917357 0.07040015 0.14209032 0.1044965
000010 8b fe 2a be 95 a7 0e 3e 2f b9 10 3e 6c 97 47 3e
       -0.16698663 0.13931115 0.14133142 0.19491357
000020 72 40 b5 3e be 71 68 3e a4 35 41 3e 2b 02 21 bf
       0.3540073 0.22699639 0.18868119 -0.62893933
000030 9f 53 9d bd be d9 14 be 3e 4f ea 3e 4d 29 26 be
       -0.07681965 -0.14536187 0.45763582 -0.16226692
000040 a8 ec 30 bb 98 83 05 3e 43 53 ae be 1d d4 48 3e
       -0.0026996527 0.1303848 -0.340479 0.19612165
000050 71 3d 54 be d1 34 5d bd 74 2e 3c be 3c cb 94 bd
       -0.20726563 -0.054005448 -0.18377095 -0.072653264
000060 e4 88 94 be fc 75 35 be ac ad 09 3e 2e d5 53 bd
       -0.2901069 -0.17720789 0.13445157 -0.051716976
000070 0a 3a 4f be 07 b6 be 3d d0 5a 66 3d 92 0f bd 3a
       -0.20236984 0.09312063 0.05623895 0.0014424196
000080 6e 26 0a bf 0b 9c 4e 3d 0a 01 c3 3d f1 1a 0d be
       -0.5396489 0.050441783 0.095216826 -0.13779809
000090 b5 89 19 3c b2 59 35 be 29 80 02 be fe e1 d3 3d
       0.009371211 -0.17709997 -0.12744202 0.10345839
0000a0 52 d8 30 3e 39 fb b5 3e 79 55 f5 3d 0b 98 d4 3e
       0.1727002 0.3554323 0.11979193 0.4152225
0000b0 54 18 59 be e2 73 bd 3d 5d 8a 67 be 2b 30 48 3d
       -0.21200687 0.092506185 -0.22611375 0.04887406
0000c0 3c 5a ad 3a 42 94 82 be 78 c1 9b 3e d4 eb d4 3e
       0.0013225744 -0.25503737 0.30421042 0.41586173
0000d0 04 93 d9 bd 19 67 29 3e 8a 7e 8e be 0d ac 61 3e
       -0.10623744 0.16543235 -0.27830917 0.22038288
0000e0 23 71 2c 3d d6 f9 52 3d 1b 5c 5b be 8c 6b 94 3d
       0.042100083 0.051507793 -0.21421854 0.072470754
0000f0 f1 6c 3d 3e c0 55 1f be 7f cf 76 3e 1d 9f 15 be
       0.18498589 -0.15560055 0.24102591 -0.14611478
000100 f9 e3 66 3d 50 c9 ab bd 91 5c b0 bd c0 6b 2b bd
       0.056369755 -0.08388007 -0.08611406 -0.041850805
000110 b2 8e 66 3e 5f 2e 60 be 14 c8 ef 3e c1 ea 25 3e
       0.22515371 -0.21892689 0.46832335 0.16202833
000120 79 dc 15 be 8e aa a1 bd 9c 1e 99 3e 81 be 36 3e
       -0.14634885 -0.07893859 0.29906166 0.17846109
000130 d4 94 21 3e 1f c7 b3 3d 18 ab a2 bb c4 30 cd bd
       0.1577943 0.08778214 -0.0049642436 -0.10019067
000140 19 a8 01 3d b2 4c a7 3e c8 3e dd 3c 1d 43 d5 bd
       0.03165445 0.326757 0.027007475 -0.104131915
000150 19 02 c4 be b3 23 08 3f 52 2c cc 3e 48 73 af 3e
       -0.3828285 0.5317947 0.39877564 0.3426764
000160 d4 5f 21 3e 75 f2 41 be cc 16 95 be 66 da c0 3d
       0.15759212 -0.18940146 -0.29118955 0.09416656
000170 28 dd 86 3e 89 5f ad be a2 61 e4 3e 71 d4 67 be
       0.26340604 -0.3386195 0.44605738 -0.22639634
000180 81 8b 3d 3d 5f 55 91 be 71 cb 49 3e 59 68 11 3e
       0.04627562 -0.28385445 0.19706513 0.14199962
000190 3d 66 39 bd 48 e6 40 be 2e 46 23 3d 89 57 dd 3b
       -0.045263518 -0.18837845 0.03986185 0.00675482
0001a0 b8 23 15 3e de 3a 8d be 27 97 79 bd 77 2b 9d bc
       0.14564407 -0.27583975 -0.060935166 -0.019185765
0001b0 36 02 47 3e d2 14 0d 3e cc 01 de 3d ab fd a6 be
       0.19434437 0.13777474 0.108401865 -0.32615408
0001c0 42 bd ff 3d 3b 8c 94 bd 7c e0 d9 3d 55 12 75 3c
       0.1248727 -0.07253309 0.1063852 0.014957984
0001d0 a0 78 90 3c bc 84 94 3d 99 d7 15 3d 53 5b 41 bc
       0.017635643 0.072518796 0.036582563 -0.011801559
0001e0 a0 29 d7 be 82 0c 56 3e 36 fc bd 3e e0 24 0e 3e
       -0.42023945 0.20903209 0.37106484 0.13881254
0001f0 0d c2 33 be 2f 98 6e bc 22 e6 37 be 77 5f 5e 3c
       -0.17554493 -0.014562651 -0.17958882 0.013572565

layer2.weight f4 [10, 128]
000000 51 1e 1e 3e 65 1c e0 be 14 45 d4 be d6 27 c4 3e
       0.15441252 -0.43771663 -0.41458952 0.38311642
000010 96 c1 4f 3f 5a 27 ba be a1 22 a3 3e 96 cf 7a bf
       0.81154764 -0.36358148 0.31862357 -0.97973
000020 29 c2 1e 3f c3 fb b1 be 71 30 db 3e d0 1b 92 3e
       0.62015015 -0.3476239 0.42810395 0.28536844
000030 15 3d e9 bd 56 56 3e 3e 89 d4 22 be 34 a6 33 be
       -0.113886036 0.18587622 -0.15901388 -0.1754387
000040 b1 c3 68 be 27 e5 05 be 02 fb 19 3f f2 aa cc 3e
       -0.227309 -0.13075696 0.6014863 0.3997417
000050 9c b1 a8 3e 2e 6b 3c 3f 12 58 a9 bd 36 8a 12 3f
       0.32948005 0.73601043 -0.08268751 0.57242143
000060 df 37 1f 3f 0a 8d ce 3e 0f cc ac be da 7d d5 3e
       0.6219463 0.4034198 -0.33749434 0.4169758
000070 64 a8 bd 3e 5f 7c e8 3e a1 cc e6 be 38 b6 77 3e
       0.37042534 0.45407388 -0.45077994 0.24190605
000080 27 7e a4 3e 68 c1 00 bf ca 9d 26 3f 4d 86 81 3e
       0.32127497 -0.50295115 0.65084517 0.25297776
000090 83 35 e4 bd 25 c6 b1 3e 6d f4 28 3d ac 5d 3a 3e
       -0.11143019 0.34721485 0.041248728 0.18199795
0000a0 86 86 01 be 47 6c 0a 3f aa cb cb be c1 24 dc be
       -0.12648973 0.5407147 -0.3980382 -0.4299679
0000b0 1e 77 dc 3e 54 ed 9c be 6e 88 af bc eb cd b3 be
       0.4305963 -0.30649817 -0.02142736 -0.3511804
0000c0 53 50 5e be e7 df b7 be 57 31 6c 3f fa 80 5d bb
       -0.21710329 -0.3591301 0.92262787 -0.00337988
0000d0 99 2e e2 be d2 ff fb be 1f 2a 05 3e 19 17 b8 3e
       -0.44176176 -0.49218613 0.13004349 0.35955122
0000e0 ba 37 2f be c6 ee 51 be 0b 4b b0 3e 50 fb 14 3e
       -0.17111102 -0.20501241 0.34432253 0.14548993
0000f0 28 3f ba be 3b f2 cd 3e 1b c1 3d be 2c 5a 85 3e
       -0.3637631 0.4022387 -0.18530695 0.26045358
000100 80 57 f1 be 42 b5 e8 bd bd e8 c2 bd f1 89 0f 3e
       -0.4713707 -0.11362697 -0.095170476 0.14017464
000110 d1 0b 0b bf f9 7b f1 be be dd 02 bf 43 68 8f 3e
       -0.54314905 -0.47164896 -0.511196 0.28009233
000120 27 08 c7 3e 1b a7 26 3e ef 28 c2 3d e8 98 57 3e
       0.38873407 0.16274683 0.09480464 0.21054423
000130 f7 86 b4 3d 06 9a 72 3e 3c 80 20 3d 6f 1c 8a be
       0.08814805 0.23691568 0.039184794 -0.26974818
000140 79 76 f9 be 92 9c 6f be 26 f5 02 3f 11 72 c7 3e
       -0.487232 -0.2339957 0.51155317 0.38954213
000150 51 3e 12 3f 59 96 3f bf 61 f5 55 3f d5 13 0e bf
       0.5712634 -0.7483879 0.83577543 -0.5549901
000160 78 10 33 3d e1 2c b4 be 32 9f 8c be fc 16 c2 be
       0.043716878 -0.3519049 -0.27465206 -0.3790816
000170 df 30 f6 be d4 b8 38 3f 45 f5 cb bc 5f ed 08 3f
       -0.4808416 0.72157025 -0.024897227 0.534872
000180 cf 5e 18 3f a1 1b 83 be 26 4a 60 3e 6d fc da be
       0.59519666 -0.25607017 0.21903285 -0.4277071
000190 54 47 cc be b8 47 43 3e 67 8e 12 be bd 49 27 3f
       -0.3989817 0.19070327 -0.14312135 0.6534689
0001a0 39 0c c2 be 91 28 c5 be f4 3f 08 3f 7e a9 93 3e
       -0.3789995 -0.38507512 0.53222585 0.2884025
0001b0 d8 27 0b bf 72 e9 8a 3e 3e 95 aa be c3 ca 21 3f
       -0.5435767 0.2713123 -0.33316988 0.63200015
0001c0 f1 b1 d0 be 7c 9b 55 be d2 4c a5 be 4c 04 0d bf
       -0.4076076 -0.20860094 -0.32285172 -0.5508468
0001d0 aa 5c 90 3f c3 f0 3d be 03 96 f9 bd 52 c6 47 3e
       1.1278279 -0.18548875 -0.121868156 0.19509247
0001e0 d0 02 07 3f 2f 8f 78 be fb 69 bc be 7a de f3 3b
       0.52738667 -0.2427337 -0.36799607 0.0074422928
0001f0 90 8b d3 3e 8e f3 fe be 54 cb 49 bf 26 07 a2 be
       0.41317415 -0.49795192 -0.7882588 -0.3164608
000200 07 44 bf be 43 9a 4b 3d 5a 15 4b be b3 c4 88 be
       -0.37356588 0.049707662 -0.19832364 -0.2671257
000210 af 8a 29 3e b6 a5 7e be 44 6c e0 be 27 4d 86 bd
       0.1655681 -0.24867901 -0.438326 -0.065576844
000220 61 7d b3 be 60 81 30 be 38 ca 3b be 11 64 06 be
       -0.35056594 -0.17236853 -0.18338859 -0.1312411
000230 45 c4 b3 be 12 95 97 bd 2e b5 ea 3e 83 76 51 3e
       -0.3511068 -0.0740148 0.45841354 0.20455365
000240 60 34 e0 bd a8 cf f0 3e e1 20 3d be 9c ab 96 3e
       -0.1094749 0.4703343 -0.18469574 0.29427803
000250 64 7e 08 3f b7 48 c6 3e a5 d1 a5 be dc bb c4 be
       0.53317857 0.38727352 -0.3238651 -0.38424575
000260 be 90 b9 3e 5e c3 2b be 31 6f dc be e0 62 40 3e
       0.36243242 -0.16773745 -0.43053582 0.18787718
000270 46 4d 66 bc ce 64 1f 3f 84 21 0e be 9b 1f 51 bc
       -0.014056509 0.6226319 -0.13879973 -0.012763883
000280 92 da c9 3e cd 9c 3f 3f b4 e5 72 bd 32 d9 f1 3d
       0.39424568 0.74848634 -0.059301093 0.11809005
000290 b0 36 b1 be 0a d9 de 3c 23 67 24 3f dd 7c 02 be
       -0.34612036 0.027203102 0.64219874 -0.12742944
0002a0 b7 4e 44 3f 40 89 de be 79 c4 b5 3d 17 3a 19 3d
       0.7668261 -0.43464088 0.08875365 0.037408914
0002b0 7e 83 44 3e 65 6d 6c be 30 0a 98 be 42 40 6c 3f
       0.19190785 -0.23088606 -0.29695272 0.9228555
0002c0 44 18 40 bf 83 26 ca be de 0c 30 bd 29 ce b9 3e
       -0.75037026 -0.39482507 -0.04298102 0.362901
0002d0 d2 4f 82 3e 55 71 2f bf 63 0f a9 3c ab 6c ea 3e
       0.25451523 -0.68532306 0.02063722 0.45786032
0002e0 43 d4 16 3d 4f a8 bb 3e e8 d6 a1 3e 12 5e 8a be
       0.036823522 0.36651847 0.31609273 -0.27024895
0002f0 10 f9 a1 3e ff a4 cc 3d e9 0a ac 3d 82 14 8e 3e
       0.31635332 0.09992408 0.084005184 0.2775002
000300 e0 e6 3a 3f 35 7f b0 be f0 32 37 be b8 65 39 3f
       0.7300854 -0.3447205 -0.17890525 0.72420835
000310 e0 21 c0 be f5 a1 3f be 91 0c 0a 3f ab b8 d0 bb
       -0.37525845 -0.18714125 0.53925425 -0.0063696704
000320 e3 29 36 3e 17 ee 04 3f f9 81 dd be 3d 97 81 bd
       0.17789416 0.51925796 -0.43263224 -0.063276745
000330 4d b4 f7 be f8 76 b5 3e 72 28 60 be e9 0c cf 3e
       -0.48379746 0.35442328 -0.21890429 0.40439537
000340 9b 25 b9 3e e1 f5 5f bd 31 ed 83 3f b3 4f 1e 3c
       0.36161503 -0.054677848 1.030676 0.009662556
000350 9f 23 7e bd 90 78 a2 3c db 78 0d bf 18 d7 8b bd
       -0.06204569 0.01983288 -0.55262536 -0.06828135
000360 27 c6 36 3f 26 47 2c bf c8 80 32 bd f0 d0 e4 bd
       0.71396106 -0.67296064 -0.043579847 -0.11172664
000370 57 18 1a 3f 8e 17 cf bd 4a fd ab be 81 c5 2a 3f
       0.6019339 -0.101119146 -0.33591682 0.6670762
000380 ce 40 44 bf 06 93 5b 3f bd cc fa bd e2 f5 a4 bd
       -0.76661384 0.85771215 -0.12246082 -0.08054711
000390 7d 9b ae be 7d 35 c0 3e 54 5a d8 be 68 57 11 be
       -0.34103003 0.37540808 -0.42256415 -0.14193499
0003a0 e4 3a 8b bd 0d c7 99 bf c0 7d fe 3e 86 46 5e 3d
       -0.06798342 -1.201387 0.49705315 0.054266475
0003b0 71 97 36 be 3e 52 30 3f 29 6b a0 bd 42 da 80 3e
       -0.17831208 0.6887549 -0.07832939 0.25166517
0003c0 6f 8d 1f 3e 01 6b d9 be e8 98 bd bd 4f e8 be 3e
       0.15581296 -0.4246445 -0.0925768 0.37286612
0003d0 a5 da 06 bd 2c 79 95 be 2c 74 53 bf 56 76 cc be
       -0.03292336 -0.2919401 -0.8259914 -0.39934033
0003e0 69 42 9b be f6 d7 a3 be b0 2a 8e be 72 f7 58 be
       -0.30324104 -0.32000703 -0.27766943 -0.21188143
0003f0 63 e9 db 3d 75 89 84 bd 81 36 bb be 89 7e 16 3d
       0.10737874 -0.0647153 -0.3656502 0.036741767

layer2.bias f4 [10]
000000 fd 19 90 be 7c a2 8e bd 2c 01 67 be 51 7e b2 be
       -0.28144827 -0.06964585 -0.22559041 -0.34861997
000010 8c c1 ea bd dd ab 0d be ed 00 7d be 7a cd ab bd
       -0.114626974 -0.13835092 -0.24707384 -0.08388801
000020 9e ef d7 be fa da 52 be
       -0.42175 -0.20591345
