model.pth (torch, 408467 bytes, 4 tensors)

layer1.weight f4 [128, 784]
000000 5f 31 0d bd b4 3b 23 3c c0 b2 4f 3a 68 03 e3 bc
       -0.034470912 0.009962965 0.0007923059 -0.027711585
000010 1c 83 0c 3c 18 43 15 3c 0e d0 63 bc d8 b0 bc 3c
       0.008576181 0.009110235 -0.013904585 0.023033544
000020 38 eb db 3b 80 32 aa 39 50 4b 99 3b 70 cf 71 bb
       0.00671139 0.00032462552 0.0046781674 -0.0036897324
000030 b5 f7 99 3b 71 9b 4a bc f1 21 ae bc e8 9e aa 3c
       0.0046987184 -0.012366162 -0.021256419 0.020827726
000040 ab bc 11 3d 60 36 3a 3c e8 c7 93 3c 75 db f9 bc
       0.03558032 0.011365503 0.018039659 -0.030500153
000050 b0 7f 72 3c 78 14 8a bb 04 73 0c bd 92 2b e7 3c
       0.014800951 -0.004213866 -0.034289375 0.028219018
000060 8a b8 8f 3c 67 99 0e 3d a0 74 f3 ba f0 a6 46 3b
       0.01754405 0.034814265 -0.0018574186 0.0030311905
000070 10 dd 85 3c 95 66 a0 bc 78 71 5c bc aa 9d 42 bc
       0.016340762 -0.019580165 -0.013454787 -0.01187841
000080 0d 28 e0 bb 5f ae 19 3c cf 0d c7 bb f2 8d 33 b8
       -0.006840712 0.009379952 -0.006074644 -4.2809123e-05
000090 81 21 11 3d 2a be c3 37 9d 35 3a bc 24 d4 0d bd
       0.035432342 2.3334364e-05 -0.011365321 -0.03462614
0000a0 6d ec 12 3c 9f 08 d6 3a fe 06 bc bc 55 0a ad bc
       0.008967501 0.0016329474 -0.022952553 -0.02112309
0000b0 80 f4 88 39 4b ba 55 3c e3 67 45 3c d5 fd b1 bb
       0.00026122108 0.013044904 0.012048694 -0.0054318705
0000c0 9f cd f5 3b 5b 5e 2d bc 7e 0c 87 3c 6f ba 06 bd
       0.0075013186 -0.010581578 0.016485449 -0.03289264
0000d0 64 5e 0a 3c a8 72 b1 3c 08 4d 63 3c 60 69 c8 ba
       0.008445356 0.021661118 0.013873346 -0.0015290193
0000e0 d0 90 5b 3b 7a 9e a7 3c 08 23 c5 3b e6 41 fd bc
       0.0033503063 0.02046131 0.006016139 -0.030915212
0000f0 2a da 2c bc 52 0e 62 bc 38 ba d6 bc 36 1c a6 bc
       -0.010550061 -0.01379736 -0.026211843 -0.020277124
000100 2f 67 d1 3c 3c f3 2a bb db 54 2c bc d8 64 9b 3c
       0.025561897 -0.002608492 -0.010518278 0.018968984
000110 eb a4 e8 3c 89 47 0a bc 81 59 f3 bc c2 38 3f bd
       0.028398952 -0.008439907 -0.029705765 -0.046684988
000120 08 5f 1d bd 21 1a 98 bc 98 dc 8f ba c2 53 b8 3c
       -0.038420707 -0.018567147 -0.0010975776 0.022500876
000130 0b 49 b9 bc 38 12 7c 3b c9 7d 0f bd e8 26 ce 3c
       -0.022617837 0.0038463008 -0.035032067 0.025165036
000140 a8 5c 49 3c a5 53 f6 3c 00 b6 05 bc 80 0e 95 3b
       0.012290157 0.030069182 -0.008161068 0.0045488477
000150 48 4e de bb 33 d7 af bc f6 d1 30 bb dd 66 a9 bc
       -0.006784234 -0.02146492 -0.0026980615 -0.020678932
000160 d6 41 f4 3c 50 8b 12 bd 97 83 af bc 29 7d 66 bc
       0.02981655 -0.03577739 -0.021425052 -0.014067926
000170 02 b5 51 3c 4c 8e 01 bd 67 6b 8a 3c d1 74 4e bd
       0.012799503 -0.031629845 0.016896917 -0.050404374
000180 3b 6a 47 bc fb 0c af bc 70 32 67 bd b2 34 52 bd
       -0.012171323 -0.021368494 -0.056444585 -0.051319785
000190 d7 8c e6 ba 90 0b 8c bc a1 45 de bb 80 ad 15 bd
       -0.0017589581 -0.017095357 -0.0067832028 -0.036542416
0001a0 b9 0f e9 3c d5 c4 c3 3b 21 1e 8d bb 45 e3 c6 bc
       0.02844988 0.005974392 -0.00430657 -0.024278292
0001b0 61 9b 8d bc 1f 58 c4 3c 70 1c e0 bb 30 39 c3 bb
       -0.017286004 0.0239678 -0.0068393275 -0.005957745
0001c0 ee a1 6c bc e7 c4 82 3c 22 bd e6 bc d8 e7 0c 3d
       -0.014442904 0.015963031 -0.028166357 0.03440079
0001d0 9b 6b ec 3c a4 70 12 bc 87 d1 12 3a 5e b0 05 3d
       0.028859904 -0.008937988 0.000560068 0.0326389
0001e0 1f 7f e8 3c d7 9d 80 bc cc 6c cd bc b5 3e dc bc
       0.028380929 -0.015700264 -0.025076292 -0.02688537
0001f0 c9 fe 38 bc 3d 1a 64 bd f2 72 b0 bc e7 5d fe 3b
       -0.011291214 -0.055689085 -0.021539185 0.007762659
000200 d8 a9 05 bd c2 4b e9 bc b8 15 dd 3c db bf 8c 3c
       -0.03263268 -0.028478507 0.026987895 0.017181328
000210 fc 40 53 b8 1e 0d 11 3d 9e e8 c0 3c 73 5f 59 bc
       -5.036684e-05 0.0354129 0.02354842 -0.013267386
000220 55 93 c4 bc ef ff 01 3d 92 c1 fc bc cf d0 04 3c
       -0.023996035 0.031738218 -0.03085402 0.0081064245
000230 e4 bb 5c 3c cb 5f 01 3d 95 a7 51 3c 2c 48 90 bc
       0.013472531 0.031585496 0.012796302 -0.01761254
000240 13 74 e7 bb c6 23 dc bb 52 ab cd bc fc 10 40 bc
       -0.0070633977 -0.0067181317 -0.025106106 -0.011722799
000250 d6 47 d8 bb 79 03 ea 3b b1 65 48 bd b6 a5 b9 bc
       -0.0066003604 0.0071415273 -0.048925105 -0.022662025
000260 68 57 dc ba ce 89 24 bd 38 41 16 3d 1d 55 3a 3c
       -0.0016810717 -0.040170483 0.03668329 0.011372832
000270 2e 00 99 3c 2f 01 97 3d 08 15 a2 3d c1 28 a2 3c
       0.018676843 0.07373273 0.07914168 0.019794824
000280 99 8c 9c 3d f1 a8 67 3d f9 29 34 3d 02 dc 9b 3c
       0.076440044 0.0565576 0.04398534 0.019025806
000290 39 ef 89 3c a2 8d 3e bc 9e de bc 3b 0e 03 95 3c
       0.016837703 -0.011630448 0.0057638427 0.018189933
0002a0 f0 be 2b 3c 2e 07 8a bc 30 91 f6 3c 2f d0 c5 3c
       0.010482535 -0.016849127 0.030098528 0.024147121
0002b0 c2 d2 39 bd c5 0e e9 bc b8 48 43 bd 6a 27 4a bd
       -0.04536701 -0.028449425 -0.047676772 -0.049353994
0002c0 73 14 c6 bc b2 1c b1 3b 4b 52 8d 3a 03 bb 8a bc
       -0.024179673 0.005405032 0.0010781972 -0.016934877
0002d0 c7 f4 f2 3c 16 1c 08 3d 30 18 54 3d ee b8 8d 3d
       0.029657735 0.03322991 0.05178088 0.06920038
0002e0 4b b5 da 3d 39 45 8c 3d dc 32 a2 3d 91 bb 34 3d
       0.1067911 0.06849141 0.07919857 0.04412419
0002f0 b5 68 ab 3d ce e3 97 3d 08 84 1a 3d 5b 06 a0 3d
       0.08369581 0.07416497 0.03772357 0.07813712
000300 13 16 71 3d fc 05 48 3d 5a 59 22 bc dc 27 6b bc
       0.058858942 0.048833832 -0.009908998 -0.014352765
000310 84 9c 02 3d 6d 09 7e 3c db 3e 46 3c 1b 1e 79 b9
       0.031887546 0.015505177 0.012099947 -0.00023757706
000320 36 58 53 bc 5d 3e 52 bd e5 e8 44 3c b7 ea 82 3c
       -0.012899449 -0.051329006 0.012018417 0.015981061
000330 c5 77 ef bc fc 98 38 bc b4 20 d0 bb ff 4c 7e 3d
       -0.029231915 -0.011266943 -0.0063515548 0.062085148
000340 e8 4a d0 3c 7c 80 a1 3d 4a 91 6d 3d ea e1 e8 3d
       0.025426343 0.078858346 0.057999887 0.11371215
000350 65 f7 69 3d 0c a3 54 3d 77 c8 49 3d 61 e4 5c 3d
       0.0571207 0.051913306 0.049263444 0.053928737
000360 a8 8c 4e 3d 25 c7 aa 3d 6c da a1 3d f4 f9 b0 3d
       0.05042711 0.08338765 0.07902989 0.08641425
000370 73 ae a7 3d 1b 69 3b 3c b4 2a b9 3c 9c 19 59 bc
       0.081875704 0.011438633 0.02260337 -0.013250735
000380 7c 21 2b bc a2 4c a8 3c 4d ae 26 3c 54 e6 96 3c
       -0.010444995 0.020544354 0.0101733925 0.018420376
000390 e0 8d 30 bd 38 aa 81 3b 8b 52 0d 3d 84 c4 a2 3c
       -0.043104053 0.0039570592 0.034502547 0.019869097
0003a0 ec d2 0c 3d 12 49 88 3d b3 00 50 3d 8c 8b 49 3d
       0.03438084 0.06654562 0.050781917 0.049205348
0003b0 30 ed 9e 3d da 4e 82 3d c2 10 a3 3d 74 e0 ca 3d
       0.07760084 0.06362696 0.07962181 0.09906092
0003c0 98 41 a3 3d 88 d3 89 3d 5d 4e 85 3d c3 01 54 3d
       0.079714954 0.067297995 0.06509087 0.051759493
0003d0 f2 ba a1 3d b8 b9 ad 3d 91 4c 48 3d 63 b2 09 3d
       0.07896985 0.08482689 0.048901144 0.03361739
0003e0 33 77 6e 3d 83 a3 d4 3c 23 14 29 3c 51 e9 8e 3b
       0.058219146 0.025956875 0.010319742 0.0043613096
0003f0 94 e7 31 bc 11 fa 26 bc 46 6d b9 bb d8 bc eb 3b
       -0.010858435 -0.010191456 -0.0056587784 0.007194143

layer1.bias f4 [128]
000000 3d 2c 80 3d 3f 7b 40 3d 2e 9d 08 3e 4a e4 02 be
       0.06258438 0.046992537 0.1334121 -0.12782398
000010 94 a6 9b 3d ce 68 c6 bd b1 1a a6 be a0 ea 04 bd
       0.07600132 -0.09687959 -0.3244224 -0.03245032
000020 a4 b6 d8 3d ad da 2d bd 0e 93 17 bd 8e e2 2d bd
       0.10581711 -0.042444874 -0.037005477 -0.042452388
000030 0a eb f2 3d 49 5b f6 ba 38 6e bf bd f5 b5 2f be
       0.118612364 -0.0018795516 -0.093471944 -0.17159255
000040 65 4f 22 be 67 67 fa bd f7 53 fd 3d 97 7b 67 3d
       -0.15850599 -0.12226754 0.12369531 0.05651435
000050 11 f9 d4 3d 59 12 05 3d 02 e7 f3 3d d2 22 68 bd
       0.10399068 0.0324882 0.119092956 -0.056673832
000060 9a cf 8f bd 52 6e 05 3e 84 2d 03 bb 57 e0 ca 3d
       -0.07022019 0.13030365 -0.0020016143 0.09906071
000070 a8 0e 20 bd ee ba e3 3d c3 a2 4f be 29 e9 86 bd
       -0.039076477 0.111196384 -0.20276932 -0.065874405
000080 1b ab 47 bd 47 a2 be bb bd cf 20 3c 10 97 37 be
       -0.048747163 -0.005817685 0.009815154 -0.1792872
000090 c7 ef 2c bd e1 4f 8d 3e ec e1 bc bc aa 22 45 3d
       -0.042220857 0.27600005 -0.023056947 0.04812876
0000a0 3a 1b 97 bd 9a b5 b0 be b3 fb 7b 3e f1 87 bc 3d
       -0.0737824 -0.3451355 0.24607734 0.09205616
0000b0 ff 87 6e bc 63 13 75 3e 93 a7 d5 bd a8 85 10 3e
       -0.014558791 0.23933177 -0.10432353 0.14113486
0000c0 f1 2a af 3c 19 2d 53 be c3 30 1e bc 16 fb 23 bc
       0.02138278 -0.20622672 -0.00965518 -0.010008594
0000d0 08 46 dd bd 2e 02 00 be 99 a4 89 bd 0c 52 99 bb
       -0.10804373 -0.12500831 -0.06720848 -0.00467897
0000e0 c2 d6 13 be 89 b8 34 3e 93 d2 f3 bc a4 70 42 be
       -0.14437392 0.1764852 -0.029763496 -0.18988281
0000f0 1b 7b 14 be e0 a3 cd bd 9e 7a 0a 3c 16 07 1a 3e
       -0.14500086 -0.10041022 0.008452086 0.15041766
000100 2c 41 bc bd de f8 ea 3a b9 72 9c be d9 e4 0d be
       -0.09192118 0.0017926951 -0.30556276 -0.1385683
000110 47 62 11 3e e9 73 6c 3d 66 9b 32 be e3 20 26 3e
       0.14197646 0.057727728 -0.17442092 0.16223483
000120 c0 d4 6f 3d 56 5f e1 bd 70 f1 c6 bd 45 ff 8b be
       0.058552504 -0.11004512 -0.09714019 -0.27343193
000130 b0 50 de 3d 38 a6 00 be cd fd c6 3d 67 e6 22 be
       0.10855234 -0.12563407 0.097163774 -0.15908204
000140 21 23 a3 3d e3 3c 97 bd b1 57 8e bd a6 69 f0 3c
       0.07965685 -0.0738466 -0.069503196 0.029347252
000150 06 a2 48 3d 6e a7 de 3d f7 e8 43 be df 2d e5 bc
       0.048982643 0.108717784 -0.19131838 -0.027975975
000160 d1 32 c7 3d d5 97 90 bd 90 2f 6a be 3d 36 2e be
       0.09726489 -0.0706021 -0.22869706 -0.17012878
000170 67 7a db bd 35 3c 1f 3e 1a 46 6a bc e6 2a 2f 3e
       -0.10716706 0.15550311 -0.01429894 0.17106208
000180 79 79 5f bd be a2 34 3e df 79 fc bb 4f d7 d7 3c
       -0.054559205 0.17640206 -0.007704958 0.026347784
000190 f6 9a 51 be 13 36 f0 bd 33 29 c8 bd 45 70 1b bd
       -0.20469269 -0.11729064 -0.09773483 -0.037948865
0001a0 fb 10 9d 3d 5f ba f1 bb 4e d3 65 be 31 45 d1 3d
       0.076692544 -0.0073769535 -0.22443888 0.10218275
0001b0 25 84 a9 3d 36 ab e7 3a b6 ad 47 3e 1d 50 96 3d
       0.08277158 0.0017674926 0.19499859 0.07339499
0001c0 40 51 c4 b7 24 21 ab bc 37 66 81 3d c4 07 01 3d
       -2.3402856e-05 -0.020889826 0.06318324 0.031501547
0001d0 62 e8 a0 bc d5 3d 04 bd c6 a9 9e ba c9 d3 de bc
       -0.019642059 -0.03228553 -0.001210504 -0.027200596
0001e0 9a c1 b7 bd 6f 7b 15 3d f0 96 e3 3c 4a b3 d0 bd
       -0.089724734 0.03649467 0.027781934 -0.10190447
0001f0 ed 4b c4 bd 19 5e 93 3e ab e5 aa 3c 7f df b0 bd
       -0.09584794 0.28782728 0.020861467 -0.086363785

layer2.weight f4 [10, 128]
000000 97 a3 4d be 3b 9e d6 be 26 25 8f 3d 61 e7 2d 3e
       -0.20081936 -0.41917595 0.069895074 0.16982795
000010 ef 56 08 bf 00 ec 8f 3e bb de a6 3d 76 10 bf 3d
       -0.5325765 0.2810974 0.08147951 0.093293115
000020 34 52 33 be 99 ed ca 3e 20 73 42 3e dc 82 05 3f
       -0.17511827 0.39634398 0.18989229 0.521528
000030 a4 18 e4 3e 10 cc 1a bd 7e cd 47 be 92 05 99 3e
       0.4455005 -0.037792265 -0.19511983 0.29887062
000040 56 c8 68 3d ca 1c 9a 3b d2 65 e5 be 7d 3f 9d 3e
       0.05683168 0.004703139 -0.44804245 0.307125
000050 d9 28 07 be 44 ab 6e be 06 97 a1 be f5 cc 64 3e
       -0.13199176 -0.2330752 -0.31560534 0.2234381
000060 9f 7d 16 be 87 07 2f 3e c7 dc 8c 3d 82 e9 dd 3d
       -0.14696358 0.17092715 0.068780474 0.10835554
000070 fc 3e 1f bd 14 a9 8a be 7a 24 d7 bc 94 44 27 be
       -0.038878426 -0.2708212 -0.02626251 -0.16334754
000080 a8 4a cf be 9f b5 eb be a1 ff 94 be 8d 91 00 3e
       -0.40486646 -0.46037003 -0.2910128 0.12555523
000090 2a 4e f7 3e 63 42 a4 be 45 d1 16 3e 8b 52 b9 bd
       0.48301822 -0.320819 0.14728267 -0.09048947
0000a0 a8 07 1b 3e dd fc c4 3e 17 e0 01 be 52 08 a1 be
       0.1513964 0.3847417 -0.1268314 -0.3145166
0000b0 0a 24 9b bd 9f a5 c7 bd 74 28 10 be a7 38 d7 bc
       -0.07575233 -0.097483866 -0.14077932 -0.026272131
0000c0 11 bb 31 be 72 8f 30 3d 13 81 ee 3d 92 18 40 3e
       -0.17356516 0.04310555 0.11645713 0.18759373
0000d0 40 97 42 3e a9 ac be 3e a1 11 8c 3e 71 a8 58 be
       0.1900301 0.37241104 0.273572 -0.21158005
0000e0 a3 3d 03 3f 0d e0 2d bd 00 e4 77 3e f5 62 8e 3e
       0.51265925 -0.04245 0.24208069 0.27809873
0000f0 18 7a 2f 3e aa 30 51 3e cf f1 de be fe fa 8a 3e
       0.17136419 0.2042872 -0.4354386 0.27144617
000100 2b 05 a0 3e 08 0d ae 3d a2 57 c7 3e 24 1b cc 3e
       0.31253943 0.08498579 0.38934046 0.39864457
000110 f4 45 4e 3d 67 d1 59 3d f4 2c be 3d 42 40 fd bd
       0.05035968 0.053178217 0.09285918 -0.12365772
000120 06 f1 32 be bc 1c ce 3e 29 b8 5a 3e 21 22 f7 3e
       -0.17474756 0.40256298 0.21359314 0.48268226
000130 33 23 98 be 8e 07 b4 3d 8e d6 c7 bd ab 3d 69 3d
       -0.29714355 0.087905034 -0.0975772 0.056943577
000140 a5 cc e5 3e 3e cf 85 3e 78 31 0d 3e 27 c3 84 be
       0.44882694 0.26134676 0.13788402 -0.2593014
000150 5e d7 e5 bd 8f fb 9e be 5e 69 cf be d6 42 83 be
       -0.11222719 -0.310513 -0.40510076 -0.2563693
000160 df 0e 97 be 68 0f 81 3e 64 9f ef bc 68 8f 88 3d
       -0.29503533 0.25207067 -0.029250808 0.066679776
000170 27 50 f7 3d 9b f5 e2 bd d2 57 32 3e 79 21 d5 3e
       0.12075835 -0.11082002 0.17416313 0.416271
000180 8f ef 9d 3e bb b0 08 3d 40 22 81 3e 55 8c 03 bf
       0.3084683 0.03337167 0.25221443 -0.51386005
000190 34 03 5a 3e 5b 57 e6 3e ee b9 dc be 10 7e 3a be
       0.21290284 0.44988522 -0.43110603 -0.18212152
0001a0 1c eb 19 be 21 00 93 be 82 fb af 3e 28 6c 5a be
       -0.15031093 -0.28711036 0.34371573 -0.21330321
0001b0 c1 b8 0a bd e8 37 a2 3e 92 0f 8b 3c ee 15 c3 be
       -0.0338676 0.31683278 0.016975198 -0.3810267
0001c0 b5 8e 1c be d3 32 02 3f 11 66 df 3d 93 09 5f 3e
       -0.15288813 0.508588 0.109081395 0.21780996
0001d0 45 ea 39 3f 28 fa a2 bc 94 c7 56 be 58 c5 1f 3e
       0.7262309 -0.019894674 -0.2097457 0.15602624
0001e0 91 8c 64 3e 36 c7 a8 3e 9a 1e 1b 3e c2 32 fb 3c
       0.22319247 0.32964486 0.15148392 0.030663852
0001f0 72 58 fe 3d 26 51 7b 3c 13 25 fc be 2d b4 fe bd
       0.12419213 0.0153391715 -0.49247035 -0.124367096
000200 96 31 4b be 2f e2 f3 3e 60 cf 88 3e e3 01 d7 be
       -0.19843134 0.47633502 0.26720715 -0.41993627
000210 9f f3 90 3e 9d 20 a5 3d a5 f4 b1 3e 37 42 77 be
       0.28310868 0.08062861 0.3475696 -0.24146353
000220 de b7 47 be 8c 87 0b be b1 e0 c5 3d 59 0e cb be
       -0.19503734 -0.13625926 0.09661997 -0.39659384
000230 13 fc 0f be 9d 02 a6 3e 62 8d ef 3d 3b 0f 76 bd
       -0.14061002 0.3242387 0.116968885 -0.06007312
000240 70 37 cd bd 4c 93 78 bd 55 4d 80 3e bc ff 85 3e
       -0.100203395 -0.06068735 0.25059 0.26171672
000250 fd 81 be 3e 23 f9 93 bd e4 66 c6 bd 64 38 f7 3e
       0.37208548 -0.072252534 -0.096875936 0.4828521
000260 5b ef b7 be 56 82 4e 3f 8f 0f c2 3e 42 70 b3 3d
       -0.359248 0.80667627 0.37902495 0.08761646
000270 ef dc 91 3e ed 0a af 3e d9 2b f4 3d dd 83 80 be
       0.2848887 0.34188023 0.11922426 -0.25100604
000280 e3 69 98 be 0c 5c a2 3e 30 09 3b be 9d 91 45 3e
       -0.29768285 0.3171085 -0.18265224 0.19293828
000290 11 99 21 be 59 ab 04 be c6 29 f9 be e9 a8 1c 3d
       -0.15781046 -0.12955989 -0.48664683 0.038247023
0002a0 93 8f d8 be 23 ac 94 be a4 2b 1e 3d b1 ba df bd
       -0.42297038 -0.2903758 0.038615838 -0.109242804
0002b0 f3 03 3d be 1a 44 80 be 95 eb e4 3d 02 12 19 3e
       -0.18458538 -0.25051957 0.11177746 0.14948276
0002c0 72 52 eb be 30 2f 39 bd a6 73 23 3d a3 a8 c7 3e
       -0.45961338 -0.045211017 0.039905213 0.38995847
0002d0 7d 46 6e 3e 11 63 33 be 1f 21 81 3c a4 b9 7d be
       0.23269077 -0.1751826 0.015762864 -0.24777848
0002e0 1e 71 bd 3e 22 c7 25 3e 74 4e a0 be 83 02 17 3f
       0.37000364 0.16189244 -0.31309855 0.5898821
0002f0 06 c4 b9 be 04 bb bf bd d7 5d 69 3e 85 b5 87 3e
       -0.36282367 -0.09361842 0.22789703 0.26505676
000300 59 07 3f bd 32 3e 9a be 3c 08 f0 bd 3a 95 3d 3f
       -0.046637867 -0.30125576 -0.117203206 0.74055827
000310 5f 70 4d bb 30 84 25 3e b3 26 86 be 59 9d b4 bd
       -0.0031347496 0.16163707 -0.262014 -0.08819074
000320 f4 9b 89 be 33 fd 8f 3d ea e8 29 be 14 bf 4a be
       -0.26876795 0.07030716 -0.16592756 -0.19799453
000330 f2 26 22 3f 38 0c aa bd 2e fa f1 bd 4a d1 9c 3e
       0.63340676 -0.08303112 -0.11815296 0.30628425
000340 e9 69 0b 3e b3 59 9d be ee 92 5a 3e d1 08 c1 be
       0.1361462 -0.30732498 0.21345112 -0.3770204
000350 31 69 e0 3e 81 68 4a be 90 5a f9 3e 59 c6 c6 3d
       0.43830255 -0.19766428 0.48701906 0.097058006
000360 de 82 10 be 26 34 98 bc 0c 1b 38 be 19 2a 22 be
       -0.14112422 -0.018579554 -0.17979068 -0.15836371
000370 e0 d7 d5 bd bb f9 08 bf 7e 07 54 be c7 5e 54 3d
       -0.104415655 -0.5350606 -0.20705983 0.0518482
000380 ba eb 45 3d 3a a6 6b 3d 94 f4 88 bb 5a ea f2 bd
       0.04832051 0.057531573 -0.0041795466 -0.11861105
000390 ec 8c 6a 3e 97 41 2b bd 73 52 88 3e f0 eb 0d bf
       0.2290532 -0.0418106 0.26625404 -0.5543814
0003a0 96 06 bd be 69 95 2b bd 86 86 c6 3e 95 f5 01 be
       -0.36919087 -0.041890536 0.38774508 -0.12691338
0003b0 37 49 61 3d cf 66 e8 3d 0e 12 33 be 44 58 c5 bd
       0.055001464 0.11347734 -0.17487356 -0.09635976
0003c0 ee 88 cb be bf 52 d0 bd ba 01 14 be 52 17 2f 3e
       -0.39752907 -0.101720326 -0.14453784 0.1709874
0003d0 2c 1b 59 be b4 88 8e be b1 62 8b be 56 31 25 3e
       -0.21201771 -0.2783867 -0.27223733 0.16132101
0003e0 7c ee 34 3e 4b de d2 3d 2d 07 35 be 5b 09 2d 3e
       0.176691 0.10296305 -0.17678519 0.168981
0003f0 cc f5 40 3e 4e 13 e4 3d 59 30 d8 3d 29 e5 26 bd
       0.18843764 0.111364946 0.105560966 -0.040745888

layer2.bias f4 [10]
000000 15 55 1a be 8a a7 70 bd 6d d2 ee bd b4 bc 14 be
       -0.15071519 -0.058753528 -0.11661229 -0.1452511
000010 37 69 6f bd c4 df 66 bd 4e 29 c8 bd 0f ab 54 bd
       -0.05844995 -0.056365743 -0.09773503 -0.051920947
000020 7e 11 80 be be e6 88 bd
       -0.25013345 -0.066846356
